…
Define the loss metrics you will leverage for your estimation

Notice how in the example the usual learning rate of 0.001 is
chosen. This has a big impact on how the neural network will be
trained.

Look at the size of the Network

#+begin_src ipython :results output :results output
net = Net()

summary(net, input_size=(3, 256, 256), batch_size=BATCH_SIZE) 
#+end_src

#+RESULTS:
#+begin_example
----------------------------------------------------------------
        Layer (type)               Output Shape         Param #
================================================================
            Conv2d-1           [4, 6, 252, 252]             456
         MaxPool2d-2           [4, 6, 126, 126]               0
            Conv2d-3          [4, 16, 122, 122]           2,416
         MaxPool2d-4            [4, 16, 61, 61]               0
            Conv2d-5            [4, 32, 57, 57]          12,832
         MaxPool2d-6            [4, 32, 28, 28]               0
            Linear-7                   [4, 896]      22,479,744
            Linear-8                   [4, 400]         358,800
            Linear-9                   [4, 101]          40,501
================================================================
Total params: 22,894,749
Trainable params: 22,894,749
Non-trainable params: 0
----------------------------------------------------------------
Input size (MB): 3.00
Forward/backward pass size (MB): 27.60
Params size (MB): 87.34
Estimated Total Size (MB): 117.94
----------------------------------------------------------------
#+end_example
…
      around 25 Mio. Parameters. Moreover it takes as much as 97 MB of
      memory for saving the parameters and 0.5 GB to save the entire
      model. It is big. No Way to train it without transfer
      learning. Extremely painful.

      #+begin_src ipython :results output :results output
      summary(model, input_size=(3, 256, 256), batch_size=BATCH_SIZE) 
      #+end_src

      #+RESULTS:
      #+begin_example
      ----------------------------------------------------------------
	      Layer (type)               Output Shape         Param #
      ================================================================
		  Conv2d-1          [4, 64, 128, 128]           9,408
	     BatchNorm2d-2          [4, 64, 128, 128]             128
		    ReLU-3          [4, 64, 128, 128]               0
	       MaxPool2d-4            [4, 64, 64, 64]               0
		  Conv2d-5            [4, 64, 64, 64]           4,096
	     BatchNorm2d-6            [4, 64, 64, 64]             128
		    ReLU-7            [4, 64, 64, 64]               0
		  Conv2d-8            [4, 64, 64, 64]          36,864
	     BatchNorm2d-9            [4, 64, 64, 64]             128
		   ReLU-10            [4, 64, 64, 64]               0
		 Conv2d-11           [4, 256, 64, 64]          16,384
	    BatchNorm2d-12           [4, 256, 64, 64]             512
		 Conv2d-13           [4, 256, 64, 64]          16,384
	    BatchNorm2d-14           [4, 256, 64, 64]             512
		   ReLU-15           [4, 256, 64, 64]               0
	     Bottleneck-16           [4, 256, 64, 64]               0
		 Conv2d-17            [4, 64, 64, 64]          16,384
	    BatchNorm2d-18            [4, 64, 64, 64]             128
		   ReLU-19            [4, 64, 64, 64]               0
		 Conv2d-20            [4, 64, 64, 64]          36,864
	    BatchNorm2d-21            [4, 64, 64, 64]             128
		   ReLU-22            [4, 64, 64, 64]               0
		 Conv2d-23           [4, 256, 64, 64]          16,384
	    BatchNorm2d-24           [4, 256, 64, 64]             512
		   ReLU-25           [4, 256, 64, 64]               0
	     Bottleneck-26           [4, 256, 64, 64]               0
		 Conv2d-27            [4, 64, 64, 64]          16,384
	    BatchNorm2d-28            [4, 64, 64, 64]             128
		   ReLU-29            [4, 64, 64, 64]               0
		 Conv2d-30            [4, 64, 64, 64]          36,864
	    BatchNorm2d-31            [4, 64, 64, 64]             128
		   ReLU-32            [4, 64, 64, 64]               0
		 Conv2d-33           [4, 256, 64, 64]          16,384
	    BatchNorm2d-34           [4, 256, 64, 64]             512
		   ReLU-35           [4, 256, 64, 64]               0
	     Bottleneck-36           [4, 256, 64, 64]               0
		 Conv2d-37           [4, 128, 64, 64]          32,768
	    BatchNorm2d-38           [4, 128, 64, 64]             256
		   ReLU-39           [4, 128, 64, 64]               0
		 Conv2d-40           [4, 128, 32, 32]         147,456
	    BatchNorm2d-41           [4, 128, 32, 32]             256
		   ReLU-42           [4, 128, 32, 32]               0
		 Conv2d-43           [4, 512, 32, 32]          65,536
	    BatchNorm2d-44           [4, 512, 32, 32]           1,024
		 Conv2d-45           [4, 512, 32, 32]         131,072
	    BatchNorm2d-46           [4, 512, 32, 32]           1,024
		   ReLU-47           [4, 512, 32, 32]               0
	     Bottleneck-48           [4, 512, 32, 32]               0
		 Conv2d-49           [4, 128, 32, 32]          65,536
	    BatchNorm2d-50           [4, 128, 32, 32]             256
		   ReLU-51           [4, 128, 32, 32]               0
		 Conv2d-52           [4, 128, 32, 32]         147,456
	    BatchNorm2d-53           [4, 128, 32, 32]             256
		   ReLU-54           [4, 128, 32, 32]               0
		 Conv2d-55           [4, 512, 32, 32]          65,536
	    BatchNorm2d-56           [4, 512, 32, 32]           1,024
		   ReLU-57           [4, 512, 32, 32]               0
	     Bottleneck-58           [4, 512, 32, 32]               0
		 Conv2d-59           [4, 128, 32, 32]          65,536
	    BatchNorm2d-60           [4, 128, 32, 32]             256
		   ReLU-61           [4, 128, 32, 32]               0
		 Conv2d-62           [4, 128, 32, 32]         147,456
	    BatchNorm2d-63           [4, 128, 32, 32]             256
		   ReLU-64           [4, 128, 32, 32]               0
		 Conv2d-65           [4, 512, 32, 32]          65,536
	    BatchNorm2d-66           [4, 512, 32, 32]           1,024
		   ReLU-67           [4, 512, 32, 32]               0
	     Bottleneck-68           [4, 512, 32, 32]               0
		 Conv2d-69           [4, 128, 32, 32]          65,536
	    BatchNorm2d-70           [4, 128, 32, 32]             256
		   ReLU-71           [4, 128, 32, 32]               0
		 Conv2d-72           [4, 128, 32, 32]         147,456
	    BatchNorm2d-73           [4, 128, 32, 32]             256
		   ReLU-74           [4, 128, 32, 32]               0
		 Conv2d-75           [4, 512, 32, 32]          65,536
	    BatchNorm2d-76           [4, 512, 32, 32]           1,024
		   ReLU-77           [4, 512, 32, 32]               0
	     Bottleneck-78           [4, 512, 32, 32]               0
		 Conv2d-79           [4, 256, 32, 32]         131,072
	    BatchNorm2d-80           [4, 256, 32, 32]             512
		   ReLU-81           [4, 256, 32, 32]               0
		 Conv2d-82           [4, 256, 16, 16]         589,824
	    BatchNorm2d-83           [4, 256, 16, 16]             512
		   ReLU-84           [4, 256, 16, 16]               0
		 Conv2d-85          [4, 1024, 16, 16]         262,144
	    BatchNorm2d-86          [4, 1024, 16, 16]           2,048
		 Conv2d-87          [4, 1024, 16, 16]         524,288
	    BatchNorm2d-88          [4, 1024, 16, 16]           2,048
		   ReLU-89          [4, 1024, 16, 16]               0
	     Bottleneck-90          [4, 1024, 16, 16]               0
		 Conv2d-91           [4, 256, 16, 16]         262,144
	    BatchNorm2d-92           [4, 256, 16, 16]             512
		   ReLU-93           [4, 256, 16, 16]               0
		 Conv2d-94           [4, 256, 16, 16]         589,824
	    BatchNorm2d-95           [4, 256, 16, 16]             512
		   ReLU-96           [4, 256, 16, 16]               0
		 Conv2d-97          [4, 1024, 16, 16]         262,144
	    BatchNorm2d-98          [4, 1024, 16, 16]           2,048
		   ReLU-99          [4, 1024, 16, 16]               0
	    Bottleneck-100          [4, 1024, 16, 16]               0
		Conv2d-101           [4, 256, 16, 16]         262,144
	   BatchNorm2d-102           [4, 256, 16, 16]             512
		  ReLU-103           [4, 256, 16, 16]               0
		Conv2d-104           [4, 256, 16, 16]         589,824
	   BatchNorm2d-105           [4, 256, 16, 16]             512
		  ReLU-106           [4, 256, 16, 16]               0
		Conv2d-107          [4, 1024, 16, 16]         262,144
	   BatchNorm2d-108          [4, 1024, 16, 16]           2,048
		  ReLU-109          [4, 1024, 16, 16]               0
	    Bottleneck-110          [4, 1024, 16, 16]               0
		Conv2d-111           [4, 256, 16, 16]         262,144
	   BatchNorm2d-112           [4, 256, 16, 16]             512
		  ReLU-113           [4, 256, 16, 16]               0
		Conv2d-114           [4, 256, 16, 16]         589,824
	   BatchNorm2d-115           [4, 256, 16, 16]             512
		  ReLU-116           [4, 256, 16, 16]               0
		Conv2d-117          [4, 1024, 16, 16]         262,144
	   BatchNorm2d-118          [4, 1024, 16, 16]           2,048
		  ReLU-119          [4, 1024, 16, 16]               0
	    Bottleneck-120          [4, 1024, 16, 16]               0
		Conv2d-121           [4, 256, 16, 16]         262,144
	   BatchNorm2d-122           [4, 256, 16, 16]             512
		  ReLU-123           [4, 256, 16, 16]               0
		Conv2d-124           [4, 256, 16, 16]         589,824
	   BatchNorm2d-125           [4, 256, 16, 16]             512
		  ReLU-126           [4, 256, 16, 16]               0
		Conv2d-127          [4, 1024, 16, 16]         262,144
	   BatchNorm2d-128          [4, 1024, 16, 16]           2,048
		  ReLU-129          [4, 1024, 16, 16]               0
	    Bottleneck-130          [4, 1024, 16, 16]               0
		Conv2d-131           [4, 256, 16, 16]         262,144
	   BatchNorm2d-132           [4, 256, 16, 16]             512
		  ReLU-133           [4, 256, 16, 16]               0
		Conv2d-134           [4, 256, 16, 16]         589,824
	   BatchNorm2d-135           [4, 256, 16, 16]             512
		  ReLU-136           [4, 256, 16, 16]               0
		Conv2d-137          [4, 1024, 16, 16]         262,144
	   BatchNorm2d-138          [4, 1024, 16, 16]           2,048
		  ReLU-139          [4, 1024, 16, 16]               0
	    Bottleneck-140          [4, 1024, 16, 16]               0
		Conv2d-141           [4, 512, 16, 16]         524,288
	   BatchNorm2d-142           [4, 512, 16, 16]           1,024
		  ReLU-143           [4, 512, 16, 16]               0
		Conv2d-144             [4, 512, 8, 8]       2,359,296
	   BatchNorm2d-145             [4, 512, 8, 8]           1,024
		  ReLU-146             [4, 512, 8, 8]               0
		Conv2d-147            [4, 2048, 8, 8]       1,048,576
	   BatchNorm2d-148            [4, 2048, 8, 8]           4,096
		Conv2d-149            [4, 2048, 8, 8]       2,097,152
	   BatchNorm2d-150            [4, 2048, 8, 8]           4,096
		  ReLU-151            [4, 2048, 8, 8]               0
	    Bottleneck-152            [4, 2048, 8, 8]               0
		Conv2d-153             [4, 512, 8, 8]       1,048,576
	   BatchNorm2d-154             [4, 512, 8, 8]           1,024
		  ReLU-155             [4, 512, 8, 8]               0
		Conv2d-156             [4, 512, 8, 8]       2,359,296
	   BatchNorm2d-157             [4, 512, 8, 8]           1,024
		  ReLU-158             [4, 512, 8, 8]               0
		Conv2d-159            [4, 2048, 8, 8]       1,048,576
	   BatchNorm2d-160            [4, 2048, 8, 8]           4,096
		  ReLU-161            [4, 2048, 8, 8]               0
	    Bottleneck-162            [4, 2048, 8, 8]               0
		Conv2d-163             [4, 512, 8, 8]       1,048,576
	   BatchNorm2d-164             [4, 512, 8, 8]           1,024
		  ReLU-165             [4, 512, 8, 8]               0
		Conv2d-166             [4, 512, 8, 8]       2,359,296
	   BatchNorm2d-167             [4, 512, 8, 8]           1,024
		  ReLU-168             [4, 512, 8, 8]               0
		Conv2d-169            [4, 2048, 8, 8]       1,048,576
	   BatchNorm2d-170            [4, 2048, 8, 8]           4,096
		  ReLU-171            [4, 2048, 8, 8]               0
	    Bottleneck-172            [4, 2048, 8, 8]               0
      AdaptiveAvgPool2d-173            [4, 2048, 1, 1]               0
		Linear-174                   [4, 500]       1,024,500
		  ReLU-175                   [4, 500]               0
	       Dropout-176                   [4, 500]               0
		Linear-177                   [4, 101]          50,601
		  ReLU-178                   [4, 101]               0
      ================================================================
      Total params: 24,583,133
      Trainable params: 1,075,101
      Non-trainable params: 23,508,032
      ----------------------------------------------------------------
      Input size (MB): 3.00
      Forward/backward pass size (MB): 1497.11
      Params size (MB): 93.78
      Estimated Total Size (MB): 1593.89
      ----------------------------------------------------------------
…
